base: 2
out_channels =  64
groups =  1
out_channels =  128
groups =  1
out_channels =  256
groups =  1
out_channels =  256
groups =  1
out_channels =  512
groups =  1
out_channels =  512
groups =  1
out_channels =  512
groups =  1
out_channels =  512
groups =  1
DataParallel(
  (module): VGG(
    (features): DataParallel(
      (module): Sequential(
        (0): Conv2d(3, 64, kernel_size=(3, 3), stride=(1, 1), padding=(1, 1))
        (1): BatchNorm2d(64, eps=1e-05, momentum=0.1, affine=True, track_running_stats=True)
        (2): ReLU(inplace=True)
        (3): MaxPool2d(kernel_size=2, stride=2, padding=0, dilation=1, ceil_mode=False)
        (4): Conv2d(64, 128, kernel_size=(3, 3), stride=(1, 1), padding=(1, 1))
        (5): BatchNorm2d(128, eps=1e-05, momentum=0.1, affine=True, track_running_stats=True)
        (6): ReLU(inplace=True)
        (7): MaxPool2d(kernel_size=2, stride=2, padding=0, dilation=1, ceil_mode=False)
        (8): Conv2d(128, 256, kernel_size=(3, 3), stride=(1, 1), padding=(1, 1))
        (9): BatchNorm2d(256, eps=1e-05, momentum=0.1, affine=True, track_running_stats=True)
        (10): ReLU(inplace=True)
        (11): Conv2d(256, 256, kernel_size=(3, 3), stride=(1, 1), padding=(1, 1))
        (12): BatchNorm2d(256, eps=1e-05, momentum=0.1, affine=True, track_running_stats=True)
        (13): ReLU(inplace=True)
        (14): MaxPool2d(kernel_size=2, stride=2, padding=0, dilation=1, ceil_mode=False)
        (15): Conv2d(256, 512, kernel_size=(3, 3), stride=(1, 1), padding=(1, 1))
        (16): BatchNorm2d(512, eps=1e-05, momentum=0.1, affine=True, track_running_stats=True)
        (17): ReLU(inplace=True)
        (18): Conv2d(512, 512, kernel_size=(3, 3), stride=(1, 1), padding=(1, 1))
        (19): BatchNorm2d(512, eps=1e-05, momentum=0.1, affine=True, track_running_stats=True)
        (20): ReLU(inplace=True)
        (21): MaxPool2d(kernel_size=2, stride=2, padding=0, dilation=1, ceil_mode=False)
        (22): Conv2d(512, 512, kernel_size=(3, 3), stride=(1, 1), padding=(1, 1))
        (23): BatchNorm2d(512, eps=1e-05, momentum=0.1, affine=True, track_running_stats=True)
        (24): ReLU(inplace=True)
        (25): Conv2d(512, 512, kernel_size=(3, 3), stride=(1, 1), padding=(1, 1))
        (26): BatchNorm2d(512, eps=1e-05, momentum=0.1, affine=True, track_running_stats=True)
        (27): ReLU(inplace=True)
        (28): MaxPool2d(kernel_size=2, stride=2, padding=0, dilation=1, ceil_mode=False)
      )
    )
    (classifier): Sequential(
      (0): Linear(in_features=512, out_features=4096, bias=True)
      (1): ReLU(inplace=True)
      (2): Linear(in_features=4096, out_features=2048, bias=True)
      (3): ReLU(inplace=True)
      (4): Linear(in_features=2048, out_features=10, bias=True)
    )
  )
)
=> loading checkpoint 'saved_models/vgg11_8bit.pt'
base: 2
out_channels =  64
groups =  1
out_channels =  128
groups =  1
out_channels =  256
groups =  1
out_channels =  256
groups =  1
out_channels =  512
groups =  1
out_channels =  512
groups =  1
out_channels =  512
groups =  1
out_channels =  512
groups =  1
DataParallel(
  (module): VGG(
    (features): DataParallel(
      (module): Sequential(
        (0): Conv2d(3, 64, kernel_size=(3, 3), stride=(1, 1), padding=(1, 1))
        (1): ReLU(inplace=True)
        (2): MaxPool2d(kernel_size=2, stride=2, padding=0, dilation=1, ceil_mode=False)
        (3): Conv2d(64, 128, kernel_size=(3, 3), stride=(1, 1), padding=(1, 1))
        (4): ReLU(inplace=True)
        (5): MaxPool2d(kernel_size=2, stride=2, padding=0, dilation=1, ceil_mode=False)
        (6): Conv2d(128, 256, kernel_size=(3, 3), stride=(1, 1), padding=(1, 1))
        (7): ReLU(inplace=True)
        (8): Conv2d(256, 256, kernel_size=(3, 3), stride=(1, 1), padding=(1, 1))
        (9): ReLU(inplace=True)
        (10): MaxPool2d(kernel_size=2, stride=2, padding=0, dilation=1, ceil_mode=False)
        (11): Conv2d(256, 512, kernel_size=(3, 3), stride=(1, 1), padding=(1, 1))
        (12): ReLU(inplace=True)
        (13): Conv2d(512, 512, kernel_size=(3, 3), stride=(1, 1), padding=(1, 1))
        (14): ReLU(inplace=True)
        (15): MaxPool2d(kernel_size=2, stride=2, padding=0, dilation=1, ceil_mode=False)
        (16): Conv2d(512, 512, kernel_size=(3, 3), stride=(1, 1), padding=(1, 1))
        (17): ReLU(inplace=True)
        (18): Conv2d(512, 512, kernel_size=(3, 3), stride=(1, 1), padding=(1, 1))
        (19): ReLU(inplace=True)
        (20): MaxPool2d(kernel_size=2, stride=2, padding=0, dilation=1, ceil_mode=False)
      )
    )
    (classifier): Sequential(
      (0): Linear(in_features=512, out_features=4096, bias=True)
      (1): ReLU(inplace=True)
      (2): Linear(in_features=4096, out_features=2048, bias=True)
      (3): ReLU(inplace=True)
      (4): Linear(in_features=2048, out_features=10, bias=True)
    )
  )
)
=> loading checkpoint 'saved_models/vgg11_8bit.pt'
Files already downloaded and verified
Files already downloaded and verified
====================Start Evaluation==========================
================  place from corner ==================
================== start placement in shan shape =================
======================== place subarrays of all layer===========================
…
