base: 2
out_channels =  64
groups =  1
out_channels =  128
groups =  1
out_channels =  256
groups =  1
out_channels =  256
groups =  1
out_channels =  512
groups =  1
out_channels =  512
groups =  1
out_channels =  512
groups =  1
out_channels =  512
groups =  1
VGG(
  (features): DataParallel(
    (module): Sequential(
      (0): Conv2d(3, 64, kernel_size=(3, 3), stride=(1, 1), padding=(1, 1))
      (1): ReLU(inplace=True)
      (2): MaxPool2d(kernel_size=2, stride=2, padding=0, dilation=1, ceil_mode=False)
      (3): Conv2d(64, 128, kernel_size=(3, 3), stride=(1, 1), padding=(1, 1))
      (4): ReLU(inplace=True)
      (5): MaxPool2d(kernel_size=2, stride=2, padding=0, dilation=1, ceil_mode=False)
      (6): Conv2d(128, 256, kernel_size=(3, 3), stride=(1, 1), padding=(1, 1))
      (7): ReLU(inplace=True)
      (8): Conv2d(256, 256, kernel_size=(3, 3), stride=(1, 1), padding=(1, 1))
      (9): ReLU(inplace=True)
      (10): MaxPool2d(kernel_size=2, stride=2, padding=0, dilation=1, ceil_mode=False)
      (11): Conv2d(256, 512, kernel_size=(3, 3), stride=(1, 1), padding=(1, 1))
      (12): ReLU(inplace=True)
      (13): Conv2d(512, 512, kernel_size=(3, 3), stride=(1, 1), padding=(1, 1))
      (14): ReLU(inplace=True)
      (15): MaxPool2d(kernel_size=2, stride=2, padding=0, dilation=1, ceil_mode=False)
      (16): Conv2d(512, 512, kernel_size=(3, 3), stride=(1, 1), padding=(1, 1))
      (17): ReLU(inplace=True)
      (18): Conv2d(512, 512, kernel_size=(3, 3), stride=(1, 1), padding=(1, 1))
      (19): ReLU(inplace=True)
      (20): MaxPool2d(kernel_size=2, stride=2, padding=0, dilation=1, ceil_mode=False)
    )
  )
  (classifier): Sequential(
    (0): Linear(in_features=512, out_features=4096, bias=True)
    (1): ReLU(inplace=True)
    (2): Linear(in_features=4096, out_features=2048, bias=True)
    (3): ReLU(inplace=True)
    (4): Linear(in_features=2048, out_features=10, bias=True)
  )
)
=> loading checkpoint 'saved_models/vgg11_original.pt'
Files already downloaded and verified
Files already downloaded and verified
====================Start Evaluation==========================
============= start placement ===============
================== start placement in shan shape =================
realmin =  tensor(-0.5132, device='cuda:0')
…
